frontends/onnx-frontend/test/ops/data/quantize/quantize_dequantize.onnx (onnx, 38762 bytes, 3 tensors)

backbone.conv1.weight f4 [64, 3, 7, 7]
0.009945067 -0.036496066 0.03218465 0.009375624 -0.022902653 0.0014177925 0.006511218 -0.050785054
0.057733446 0.082802944 -0.14136407 0.010851282 0.04469645 -0.008029429 0.02970768 0.094462045
-0.24007666 -0.0026602154 0.17890997 -0.039660793 -0.02271111 0.038452264 -0.15036659 -0.025590785
0.3077486 -0.12051911 -0.090681285 0.02963837 -0.024084179 -0.018886091 0.21529712 -0.10211556
-0.16292967 0.097687304 0.0006615931 -0.0065563424 0.0473368 -0.027157256 -0.11001642 0.104217485
0.016608536 -0.023609422 0.007953012 -0.0066996207 -0.018025398 0.039609943 0.0015442746 -0.028751144
0.009117349 0.010693937 -0.028114084 0.028734231 0.0053974716 -0.022103991 -0.0031566604 0.0062074545
-0.039466925 0.07070458 0.07023955 -0.15287586 0.018642856 0.04536052 -0.003934483 0.032602467
0.08778958 -0.2704748 0.009679141 0.20216173 -0.043268733 -0.02059869 0.034349322 -0.16800998
-0.024060892 0.34758285 -0.11997909 -0.11256423 0.029416703 -0.025930554 -0.017612517 0.2323653
-0.10217711 -0.18842082 0.086961806 0.0056392425 -0.006959129 0.05299956 -0.026893722 -0.12730062
0.09167468 0.019990593 -0.016688025 0.0013714079 -0.0071905493 -0.020104049 0.034671377 0.0042271116
-0.022902384 0.0056610494 0.013939283 -0.04242953 0.024506807 0.022522213 -0.016166829 1.3651264e-05
0.0047258185 -0.052405033 0.052947633 0.092971556 -0.124705024 0.0017373915 0.03300437 -0.0041656788
0.015943479 0.10539621 -0.20710695 -0.008517495 0.15865022 -0.03645708 -0.010089893 0.0349725
-0.1273666 -0.030064434 0.27262282 -0.11168334 -0.07130338 0.03439974 -0.023141542 -0.015573138
0.18211584 -0.10398257 -0.13175845 0.09889592 -0.008912431 -0.007199416 0.04675273 -0.039199214
-0.097038224 0.10699809 0.0039877654 -0.027702013 0.0022813336 -0.0021004886 -0.016420163 0.039784968
-0.0030447128 -0.02620661 0.016044237 0.0010389404 -0.005603176 0.0028582178 0.013287704 0.008297824
-0.0030568247 -0.004727889 0.0015403926 0.018099254 0.016742453 -0.015795918 -0.0277928 -0.01442824
-0.00024785465 -0.030734826 -0.07281698 -0.13116825 -0.1340595 -0.07073886 -0.019029586 -0.005989884
-0.0009529695 0.029563475 0.116175674 0.205403 0.18683463 0.096984394 0.040151823 0.05357127
0.08810379 0.077314004 -0.017916229 -0.083599314 -0.071872056 -0.028088043 -0.025006428 -0.074310645
-0.124376506 -0.119951144 -0.069633834 -0.019643998 -0.014889728 0.0057004835 0.011854031 0.029020576
0.05046769 0.038654517 0.02452146 0.0052538104 0.0050896774 0.0022448273 0.008472224 0.015989838
0.009864682 0.0025844001 0.004084281 0.00090559316 0.01235193 0.0067585455 -0.025901679 -0.03746767
-0.018313432 -0.0002697492 -0.032666057 -0.08376792 -0.14103977 -0.13818993 -0.07161788 -0.016693423
-0.0010083526 0.0059218397 0.042115226 0.1402333 0.23747207 0.21461484 0.11908461 0.054337755
0.05573687 0.09303734 0.08833904 -0.008051202 -0.08088504 -0.06856864 -0.02504036 -0.03583488
-0.0864556 -0.14010605 -0.13569933 -0.08673945 -0.026512861 -0.019594837 -0.004418516 0.0021847363
0.021973563 0.04370006 0.030452123 0.026121797 0.0042280857 -0.004747511 -0.009177614 0.0040223394
0.013112541 0.007432801 4.54884e-05 -0.001375405 0.008865476 0.02930328 0.03387304 0.001024319
00000000: a2f0 223c e67c 15bd 0dd4 033d 389c 193c
00000010: 589e bbbc 39d5 b93a 0e5c d53b fd03 50bd
00000020: e879 6c3d 9794 a93d bec1 10be 93c9 313c
00000030: a013 373d de8d 03bc 855d f33c 5175 c13d
00000040: a8d6 75be 0257 2ebb 2d34 373e 5b73 22bd
00000050: a60c babc 1f80 1d3d b3f9 19be c4a3 d1bc
00000060: 3991 9d3e b9d2 f6bd 1cb7 b9bd 2bcc f23c
00000070: 2f4c c5bc 01b7 9abc d976 5c3e f621 d1bd
00000080: 09d7 26be 4810 c83d c36e 2d3a 96d6 d6bb
00000090: 3be4 413d e578 debc 4a50 e1bd fa6f d53d
000000a0: a00e 883c 8c68 c1bc 5a4d 023c 7e88 dbbb
000000b0: 00aa 93bc 093e 223d 4269 ca3a 8587 ebbc
000000c0: ef60 153c 9f35 2f3c 824f e6bc 0d64 eb3c
000000d0: 46dd b03b 6e13 b5bc f9df 4ebb e767 cb3b
000000e0: 12a8 21bd 90cd 903d c1d9 8f3d 7d8b 1cbe
000000f0: e7b8 983c f4cb 393d d6ec 80bb 2a8a 053d
00000100: 06cb b33d ac7b 8abe 4395 1e3c 7c03 4f3e
00000110: 8e3a 31bd 95be a8bc e0b1 0c3d cf0a 2cbe
00000120: 591b c5bc 61f6 b13e 99b7 f5bd 1388 e6bd
00000130: 4cfb f03c 506c d4bc 2048 90bc 2bf1 6d3e
00000140: 3c42 d1bd 63f1 40be 0819 b23d 65c9 b83b
00000150: 6809 e4bb 1116 593d 3950 dcbc 185b 02be
00000160: efbf bb3d 50c3 a33c 53b5 88bc d0c0 b33a
00000170: b39e ebbb 3fb1 a4bc 9303 0e3d 9583 8a3b
00000180: c89d bbbc 5380 b93b 9761 643c 96ca 2dbd
00000190: 80c2 c83c 8180 b83c 4c70 84bc bc07 6537
000001a0: 0adb 9a3b a9a6 56bd 9edf 583d df67 be3d
000001b0: 5965 ffbd 2fb9 e33a 972f 073d 3f80 88bb
000001c0: e69b 823c f8d9 d73d d813 54be f78c 0bbc
000001d0: 3475 223e 0554 15bd 1450 25bc 533f 0f3d
000001e0: 646c 02be b049 f6bc 3895 8b3e 3cba e4bd
000001f0: 8207 92bd bee6 0c3d 5593 bdbc 7a26 7fbc
00000200: 937c 3a3e d0f4 d4bd b0eb 06be f289 ca3d
00000210: 7205 12bc 14e9 ebbb ca7f 3f3d 5b8f 20bd
00000220: fabb c6bd d121 db3d cdab 823b 55ef e2bc
00000230: 6d82 153b 5aa8 09bb 9483 86bc 90f5 223d
00000240: ce89 47bb 3faf d6bc 346f 833c 0e2d 883a
00000250: d99a b7bb f050 3b3b acb4 593c 99f3 073c
00000260: 0255 48bb 68ec 9abb 00e7 c93a e344 943c
00000270: 7827 893c 7166 81bc baad e3bc 6d64 6cbc
00000280: 7df2 81b9 9ac7 fbbc 1221 95bd f850 06be
00000290: e546 09be 89df 90bd efe3 9bbc ca46 c4bb
000002a0: b3d0 79ba 1a2f f23c 83ed ed3d 2a55 523e
000002b0: 9451 3f3e c19f c63d 3d76 243d 8c6d 5b3d
000002c0: c36f b43d ce56 9e3d 0ec5 92bc 1e36 abbd
000002d0: a831 93bd e518 e6bc 48da ccbc 2e30 98bd
000002e0: 1cb9 febd f2a8 f5bd 2f9c 8ebd 73ec a0bc
000002f0: 0cf4 73bc 1fcb ba3b 6937 423c 8fbc ed3c
00000300: 35b7 4e3d 3354 1e3d 3be1 c83c 2828 ac3b
00000310: 4fc7 a63b f41d 133b 15cf 0a3c 1ffd 823c
00000320: 7a9f 213c 0a5f 293b 6fd5 853b 5465 6d3a
00000330: c05f 4a3c ca76 dd3b c22f d4bc b377 19bd
00000340: 0d06 96bc 206d 8db9 d8cc 05bd 848e abbd
00000350: bb6c 10be a981 0dbe 65ac 92bd a5c0 88bc
00000360: b32a 84ba fe0b c23b 0481 2c3d 5199 0f3e
00000370: e12b 733e fec3 5b3e a2e2 f33d 4491 5e3d
00000380: 584c 643d 5c8a be3d 19eb b43d 30e9 03bc
00000390: 0ea7 a5bd b76d 8cbd 7121 cdbc 98c7 12bd
000003a0: a20f b1bd f677 0fbe c4f4 0abe 74a4 b1bd
000003b0: 8031 d9bc 5a85 a0bc 33c9 90bb cb2d 0f3b
000003c0: e701 b43c d6fe 323d bb76 f93c 61fd d53c
000003d0: c18b 8a3b 0291 9bbb b45d 16bc d4cd 833b
000003e0: fcd5 563c db8e f33b ccca 3e38 ef46 b4ba
000003f0: 8040 113c 6f0d f03c 75be 0a3d 7142 863a

1729 i1 [64]
0 0 0 0 0 0 0 0
0 0 0 0 0 0 0 0
0 0 0 0 0 0 0 0
0 0 0 0 0 0 0 0
0 0 0 0 0 0 0 0
0 0 0 0 0 0 0 0
0 0 0 0 0 0 0 0
0 0 0 0 0 0 0 0
00000000: 0000 0000 0000 0000 0000 0000 0000 0000
00000010: 0000 0000 0000 0000 0000 0000 0000 0000
00000020: 0000 0000 0000 0000 0000 0000 0000 0000
00000030: 0000 0000 0000 0000 0000 0000 0000 0000

452 f4 [64]
0.0027367768 0.0018698517 0.0008918528 0.001258214 0.00095074635 0.0025039597 0.0016692412 0.002227333
0.00035491 0.0023565101 0.0010973423 0.0020328648 0.001550294 0.0022201515 0.0022331679 0.0011289385
0.0015404101 0.0014588903 0.0012840921 0.0010111365 0.0010023706 0.0020676223 0.0013924486 0.0016160839
0.00074656046 0.0028893217 0.0032410943 0.0005356777 0.0028264213 0.002160178 0.0025625122 0.0018873861
0.0008998231 0.002266691 0.0035922849 0.0024128857 0.00041470182 0.00199505 0.002055062 0.0012900903
0.0017236725 0.0016357701 0.0024928837 0.0026203196 0.0019177612 0.0010582126 0.0026367775 0.0015178086
0.001783471 0.0011328284 0.0014994962 0.0013868192 0.0031111038 0.0014416622 0.0009075794 0.0027780107
0.0015975399 0.002145538 0.0016105751 0.0011911831 0.0017686072 0.0017789494 0.0020947775 0.0032437348
00000000: 7f5b 333b d015 f53a 3acb 693a a8ea a43a
00000010: 823b 793a 7919 243b 71ca da3a 72f8 113b
00000020: 3713 ba39 ae6f 1a3b b3d4 8f3a d039 053b
00000030: 3c33 cb3a f67f 113b 575a 123b e4f8 933a
00000040: 96e7 c93a 3c38 bf3a fb4e a83a 1c88 843a
00000050: fa61 833a f280 073b d282 b63a c7d2 d33a
00000060: d3b4 433a c65a 3d3b 8a68 543b b96c 0c3a
00000070: 7b3b 393b c691 0d3b d2ef 273b 2b62 f73a
00000080: 1be2 6b3a c48c 143b 8a6c 6b3b 8121 1e3b
00000090: 566c d939 63bf 023b 38ae 063b 3f18 a93a
000000a0: daec e13a 5667 d63a a65f 233b abb9 2b3b
000000b0: 635d fb3a b9b3 8a3a c9cd 2c3b 35f1 c63a
000000c0: 5bc3 e93a 6a7b 943a be8a c43a eec5 b53a
000000d0: a9e3 4b3b 28f6 bc3a 9fea 6d3a 490f 363b
000000e0: 8b64 d13a 289c 0c3b ef19 d33a 7921 9c3a
000000f0: 9cd0 e73a a32b e93a 8948 093b d794 543b
